Layer (type)                 Output Shape              Param #   
=================================================================
conv2d_1 (Conv2D)            (None, 30, 30, 32)        896       
_________________________________________________________________
activation_1 (Activation)    (None, 30, 30, 32)        0         
_________________________________________________________________
max_pooling2d_1 (MaxPooling2 (None, 15, 15, 32)        0         
_________________________________________________________________
conv2d_2 (Conv2D)            (None, 13, 13, 32)        9248      
_________________________________________________________________
activation_2 (Activation)    (None, 13, 13, 32)        0         
_________________________________________________________________
max_pooling2d_2 (MaxPooling2 (None, 6, 6, 32)          0         
_________________________________________________________________
conv2d_3 (Conv2D)            (None, 4, 4, 64)          18496     
_________________________________________________________________
activation_3 (Activation)    (None, 4, 4, 64)          0         
_________________________________________________________________
max_pooling2d_3 (MaxPooling2 (None, 2, 2, 64)          0         
_________________________________________________________________
flatten_1 (Flatten)          (None, 256)               0         
_________________________________________________________________
dense_1 (Dense)              (None, 128)               32896     
_________________________________________________________________
activation_4 (Activation)    (None, 128)               0         
_________________________________________________________________
dropout_1 (Dropout)          (None, 128)               0         
_________________________________________________________________
dense_2 (Dense)              (None, 36)                4644      
_________________________________________________________________
activation_5 (Activation)    (None, 36)                0         
=================================================================
Total params: 66,180
Trainable params: 66,180
Non-trainable params: 0
_________________________________________________________________
{'val_loss': [… 'val_acc': [… 'loss': [… 'acc': [… Accuracy: 95.67%